assets/selfie_segmenter.tflite (tflite, 466536 bytes, 109 tensors)

model_41/tf.math.add_84/Add/y f4 [16]
000000 00 00 03 40 00 20 1f 40 00 40 a5 40 00 80 d6 be
       2.046875 2.4863281 5.1640625 -0.4189453
000010 00 00 3d 3e 00 a0 05 40 00 e0 ac 40 00 20 59 3f
       0.18457031 2.0878906 5.4023438 0.84814453
000020 00 20 73 40 00 60 7f 40 00 c0 96 c0 00 a0 31 40
       3.7988281 3.9902344 -4.7109375 2.7753906
000030 00 c0 d0 3f 00 c0 3c 40 00 60 cb 3f 00 40 06 bf
       1.6308594 2.9492188 1.5888672 -0.52441406

model_41/tf.math.add_85/Add/y f4 [16]
000000 00 a0 b2 3f 00 20 15 3d 00 80 fa 3c 00 40 fc bc
       1.3955078 0.03640747 0.030578613 -0.030792236
000010 00 e0 cd 3e 00 a0 e4 3f 00 a0 92 bc 00 20 82 be
       0.4020996 1.7861328 -0.01789856 -0.2541504
000020 00 40 7f 3f 00 a0 40 40 00 00 55 3d 00 a0 e6 bd
       0.9970703 3.0097656 0.052001953 -0.11260986
000030 00 e0 c3 3e 00 00 84 3e 00 80 77 3e 00 60 8c 3f
       0.38256836 0.2578125 0.24169922 1.0966797

model_41/tf.math.add_86/Add/y f4 [8]
000000 00 c0 a6 be 00 00 d1 bd 00 40 19 3e 00 40 c0 3e
       -0.3256836 -0.10205078 0.1496582 0.37548828
000010 00 a0 54 3f 00 00 dd 3e 00 e0 ed 3e 00 80 2e be
       0.8305664 0.43164062 0.4645996 -0.17041016

model_41/tf.math.add_89/Add/y f4 [72]
000000 00 60 74 40 00 60 71 40 00 e0 c8 40 00 20 e3 c0
       3.8183594 3.7714844 6.2773438 -7.0976562
000010 00 20 80 bf 00 e0 d9 40 00 e0 32 40 00 c0 87 3f
       -1.0009766 6.8085938 2.7949219 1.0605469
000020 00 00 f1 40 00 a0 20 40 00 20 77 40 00 20 fd 3f
       7.53125 2.5097656 3.8613281 1.9775391
000030 00 e0 bc 40 00 80 f1 41 00 60 f6 3f 00 e0 7c 40
       5.9023438 30.1875 1.9248047 3.9511719
000040 00 a0 d8 c0 00 e0 68 40 00 a0 53 40 00 00 38 40
       -6.7695312 3.6386719 3.3066406 2.875
000050 00 60 19 40 00 40 47 40 00 20 00 c1 00 40 a8 3f
       2.3964844 3.1132812 -8.0078125 1.3144531
000060 00 e0 48 40 00 60 17 be 00 80 83 be 00 00 bb 40
       3.1386719 -0.14782715 -0.25683594 5.84375
000070 00 00 e1 bc 00 20 03 40 00 20 2a 40 00 40 fd 3f
       -0.02746582 2.0488281 2.6582031 1.9785156
000080 00 e0 55 40 00 20 17 40 00 40 b5 be 00 c0 8d c1
       3.3417969 2.3613281 -0.3540039 -17.71875
000090 00 40 65 40 00 a0 04 40 00 a0 32 40 00 20 2e 41
       3.5820312 2.0722656 2.7910156 10.8828125
0000a0 00 20 b0 40 00 00 0a 40 00 00 10 40 00 60 48 40
       5.5039062 2.15625 2.25 3.1308594
0000b0 00 80 51 3f 00 20 10 40 00 c0 e7 bf 00 00 1c 40
       0.8183594 2.2519531 -1.8105469 2.4375
0000c0 00 00 05 40 00 80 46 40 00 00 3c 40 00 00 16 41
       2.078125 3.1015625 2.9375 9.375
0000d0 00 c0 e2 bf 00 80 af 40 00 e0 94 3f 00 20 b6 c0
       -1.7714844 5.484375 1.1630859 -5.6914062
0000e0 00 20 9f bf 00 60 3b 40 00 60 7c 40 00 80 bd 40
       -1.2431641 2.9277344 3.9433594 5.921875
0000f0 00 40 ae 40 00 e0 35 be 00 e0 2e 40 00 40 85 c1
       5.4453125 -0.1776123 2.7324219 -16.65625
000100 00 20 2a 40 00 20 e2 be 00 a0 e5 3f 00 20 96 be
       2.6582031 -0.4416504 1.7939453 -0.2932129
000110 00 c0 0c 40 00 80 1d c1 00 40 02 40 00 40 06 c1
       2.1992188 -9.84375 2.0351562 -8.390625

model_41/tf.math.add_90/Add/y f4 [72]
000000 00 20 2f be 00 80 9e be 00 60 8f 3d 00 40 49 40
       -0.17102051 -0.3095703 0.070007324 3.1445312
000010 00 c0 a5 3e 00 60 58 40 00 e0 ab bd 00 c0 72 40
       0.32373047 3.3808594 -0.08392334 3.7929688
000020 00 60 2d 3e 00 80 e1 3e 00 e0 fd be 00 60 40 bd
       0.16931152 0.4404297 -0.4958496 -0.046966553
000030 00 60 39 40 00 e0 8c 40 00 e0 85 3e 00 60 8c 3d
       2.8964844 4.4023438 0.2614746 0.06854248
000040 00 60 8f 3b 00 e0 26 bf 00 20 22 3f 00 a0 54 be
       0.0043754578 -0.65185547 0.6333008 -0.2076416
000050 00 40 f3 bd 00 20 d3 3d 00 60 ef 40 00 40 a9 40
       -0.118774414 0.10308838 7.4804688 5.2890625
000060 00 00 e3 3c 00 c0 1b bf 00 20 62 40 00 a0 52 40
       0.027709961 -0.60839844 3.5332031 3.2910156
000070 00 00 8a 3e 00 40 f0 bc 00 60 2b bf 00 c0 48 40
       0.26953125 -0.029327393 -0.6694336 3.1367188
000080 00 20 43 3c 00 00 95 bb 00 80 ce bd 00 a0 3c 40
       0.011909485 -0.004547119 -0.10083008 2.9472656
000090 00 20 e1 be 00 40 46 bd 00 80 b1 3c 00 60 a3 40
       -0.43969727 -0.04840088 0.02166748 5.1054688
0000a0 00 60 cf 3f 00 a0 ed be 00 a0 93 3d 00 20 c8 bd
       1.6201172 -0.46411133 0.07208252 -0.097717285
0000b0 00 a0 7f 3f 00 40 74 3e 00 60 dd 3e 00 40 5c bd
       0.99853516 0.23852539 0.43237305 -0.053771973
0000c0 00 c0 2f bf 00 60 66 be 00 80 b8 40 00 c0 c8 40
       -0.68652344 -0.22497559 5.765625 6.2734375
0000d0 00 60 35 40 00 00 89 bd 00 00 a9 40 00 20 76 40
       2.8339844 -0.06689453 5.28125 3.8457031
0000e0 00 e0 9c bf 00 00 4d 3e 00 80 3a 3e 00 60 ba 3e
       -1.2255859 0.20019531 0.1821289 0.36401367
0000f0 00 40 44 3e 00 c0 cf 40 00 40 a1 bd 00 a0 09 40
       0.19165039 6.4921875 -0.07873535 2.1503906
000100 00 00 09 bf 00 20 21 be 00 20 65 be 00 20 20 41
       -0.53515625 -0.15734863 -0.22375488 10.0078125
000110 00 00 45 40 00 e0 4a 3e 00 40 21 3d 00 00 b1 40
       3.078125 0.19812012 0.039367676 5.53125

model_41/tf.math.add_92/Add/y f4 [88]
000000 00 c0 fa be 00 40 a2 3f 00 a0 74 40 00 00 f0 3f
       -0.4897461 1.2675781 3.8222656 1.875
000010 00 20 d1 3f 00 c0 87 3e 00 e0 4b 3f 00 00 4b 3f
       1.6337891 0.26513672 0.7963867 0.79296875
000020 00 60 37 40 00 e0 0e 40 00 60 18 40 00 60 3e 40
       2.8652344 2.2324219 2.3808594 2.9746094
000030 00 00 ea 3f 00 60 ef 3f 00 80 08 40 00 a0 0e 40
       1.828125 1.8701172 2.1328125 2.2285156
000040 00 00 75 3f 00 60 19 40 00 c0 00 40 00 e0 63 3f
       0.95703125 2.3964844 2.0117188 0.8901367
000050 00 80 d8 3f 00 c0 13 bf 00 a0 19 40 00 00 15 40
       1.6914062 -0.57714844 2.4003906 2.328125
000060 00 e0 01 40 00 20 02 3f 00 a0 7a bf 00 c0 07 40
       2.0292969 0.5083008 -0.9790039 2.1210938
000070 00 e0 02 be 00 40 cd 3f 00 40 fa 3f 00 40 98 bf
       -0.12780762 1.6035156 1.9550781 -1.1894531
000080 00 c0 08 40 00 c0 dd be 00 e0 c7 3f 00 a0 5f bf
       2.1367188 -0.43310547 1.5615234 -0.87353516
000090 00 a0 c4 3f 00 00 b0 3c 00 c0 06 40 00 e0 b2 3f
       1.5361328 0.021484375 2.1054688 1.3974609
0000a0 00 60 87 3f 00 60 08 40 00 20 a5 40 00 40 e7 3f
       1.0576172 2.1308594 5.1601562 1.8066406
0000b0 00 00 a1 3c 00 80 69 3f 00 e0 14 40 00 a0 3b 40
       0.01965332 0.9121094 2.3261719 2.9316406
0000c0 00 20 1e 40 00 a0 06 40 00 e0 a8 3f 00 20 82 3f
       2.4707031 2.1035156 1.3193359 1.0166016
0000d0 00 c0 80 bf 00 00 b1 3f 00 60 28 40 00 e0 92 40
       -1.0058594 1.3828125 2.6308594 4.5898438
0000e0 00 40 93 bf 00 80 06 40 00 e0 3e 40 00 40 25 bf
       -1.1503906 2.1015625 2.9824219 -0.6455078
0000f0 00 c0 af 3e 00 00 b6 3f 00 c0 40 40 00 40 ce 3f
       0.34326172 1.421875 3.0117188 1.6113281
000100 00 c0 ec bd 00 60 73 3f 00 60 a7 3f 00 20 e4 3f
       -0.115600586 0.9506836 1.3076172 1.7822266
000110 00 c0 95 bf 00 e0 e5 3d 00 60 d3 3f 00 a0 ec 3f
       -1.1699219 0.11224365 1.6513672 1.8486328
000120 00 80 d7 3f 00 e0 83 bf 00 e0 01 3f 00 e0 a3 3f
       1.6835938 -1.0302734 0.5073242 1.2802734
000130 00 c0 0b 40 00 c0 2a 40 00 40 23 40 00 60 09 40
       2.1835938 2.6679688 2.5507812 2.1464844
000140 00 a0 b7 3f 00 e0 47 40 00 20 dc 3f 00 60 6b 3f
       1.4345703 3.1230469 1.7197266 0.9194336
000150 00 80 fc 3f 00 e0 2b 40 00 80 dc 3f 00 c0 12 bf
       1.9726562 2.6855469 1.7226562 -0.5732422

model_41/tf.math.add_93/Add/y f4 [88]
000000 00 60 0b be 00 20 61 bf 00 00 1d 40 00 c0 9b 3f
       -0.1361084 -0.87939453 2.453125 1.2167969
000010 00 00 5d 3e 00 40 97 bf 00 00 60 40 00 40 04 41
       0.21582031 -1.1816406 3.5 8.265625
000020 00 a0 5c 3e 00 e0 18 3e 00 40 30 3e 00 e0 b4 c0
       0.2154541 0.14929199 0.17211914 -5.6523438
000030 00 c0 33 3d 00 40 bb be 00 e0 13 c0 00 e0 b4 be
       0.043884277 -0.36572266 -2.3105469 -0.35327148
000040 00 c0 c0 3e 00 c0 64 3d 00 60 2b 3f 00 c0 f4 be
       0.37646484 0.055847168 0.6694336 -0.47802734
000050 00 60 85 40 00 20 ef bf 00 80 81 c0 00 60 61 40
       4.1679688 -1.8681641 -4.046875 3.5214844
000060 00 a0 18 bf 00 80 c2 3d 00 c0 43 40 00 c0 4a bd
       -0.5961914 0.0949707 3.0585938 -0.04949951
000070 00 c0 38 40 00 80 36 3f 00 20 51 c0 00 60 a3 40
       2.8867188 0.7128906 -3.2675781 5.1054688
000080 00 a0 a7 be 00 a0 ec 3f 00 e0 9c bd 00 e0 1e c0
       -0.32739258 1.8486328 -0.07659912 -2.4824219
000090 00 20 0a bf 00 c0 b5 3e 00 80 39 c0 00 80 3e 3d
       -0.5395508 0.35498047 -2.8984375 0.04650879
0000a0 00 c0 1a bf 00 e0 a7 40 00 00 f3 be 00 80 32 40
       -0.6044922 5.2460938 -0.47460938 2.7890625
0000b0 00 c0 c6 bf 00 80 65 bd 00 00 cd be 00 80 00 c0
       -1.5527344 -0.056030273 -0.40039062 -2.0078125
0000c0 00 20 7d 40 00 a0 64 bf 00 a0 81 bf 00 c0 07 40
       3.9550781 -0.8930664 -1.0126953 2.1210938
0000d0 00 60 d8 bf 00 00 d8 3f 00 a0 53 40 00 20 86 41
       -1.6904297 1.6875 3.3066406 16.765625
0000e0 00 60 49 40 00 c0 ca c0 00 00 cf 3e 00 a0 4f bf
       3.1464844 -6.3359375 0.40429688 -0.81103516
0000f0 00 c0 56 40 00 c0 fa 3f 00 60 67 c0 00 60 49 3d
       3.3554688 1.9589844 -3.6152344 0.04916382
000100 00 20 d0 be 00 80 54 40 00 80 a0 bd 00 e0 3e 3f
       -0.40649414 3.3203125 -0.07836914 0.74560547
000110 00 00 11 c0 00 a0 88 bf 00 e0 0a c0 00 00 ac 3c
       -2.265625 -1.0673828 -2.1699219 0.020996094
000120 00 a0 82 be 00 a0 56 c0 00 00 f8 bd 00 60 25 be
       -0.25512695 -3.3535156 -0.12109375 -0.16149902
000130 00 40 fb bd 00 c0 79 40 00 80 39 40 00 60 25 3c
       -0.122680664 3.9023438 2.8984375 0.010093689
000140 00 80 87 bf 00 60 c2 3f 00 60 d2 c0 00 e0 41 40
       -1.0585938 1.5185547 -6.5742188 3.0292969
000150 00 80 75 be 00 00 c5 c0 00 a0 19 40 00 a0 4c bc
       -0.2397461 -6.15625 2.4003906 -0.012489319

model_41/tf.math.add_99/Add/y f4 [24]
000000 00 60 b6 be 00 40 27 bf 00 80 b4 3e 00 80 eb be
       -0.35620117 -0.6533203 0.35253906 -0.45996094
000010 00 00 87 bf 00 c0 cb 3e 00 a0 f2 3d 00 80 22 be
       -1.0546875 0.39794922 0.11846924 -0.1586914
000020 00 c0 76 bf 00 20 b8 be 00 40 e8 3e 00 00 d6 be
       -0.9638672 -0.35961914 0.45361328 -0.41796875
000030 00 c0 3f be 00 e0 82 be 00 a0 f2 bd 00 00 db bd
       -0.18725586 -0.25561523 -0.11846924 -0.106933594
000040 00 a0 3b be 00 60 4f 3e 00 80 3b be 00 e0 b7 be
       -0.18322754 0.20251465 -0.18310547 -0.35913086
000050 00 60 0a 3f 00 a0 e5 3e 00 00 22 3f 00 a0 e2 be
       0.54052734 0.44848633 0.6328125 -0.44262695

model_41/tf.math.add_104/Add/y f4 [32]
000000 00 60 9f be 00 20 c7 3e 00 80 ac be 00 60 e7 be
       -0.3112793 0.38891602 -0.33691406 -0.4519043
000010 00 40 24 be 00 40 f5 be 00 c0 af be 00 20 f1 be
       -0.16040039 -0.4790039 -0.34326172 -0.47094727
000020 00 a0 13 3f 00 a0 0e be 00 c0 d1 bd 00 20 36 be
       0.57666016 -0.13928223 -0.10241699 -0.17785645
000030 00 20 05 bf 00 a0 f1 be 00 e0 c0 bc 00 e0 85 be
       -0.52001953 -0.47192383 -0.023544312 -0.2614746
000040 00 c0 4b bf 00 40 ac be 00 60 ff 3e 00 a0 ad bd
       -0.79589844 -0.33642578 0.4987793 -0.08477783
000050 00 c0 a2 3d 00 20 20 be 00 20 13 bd 00 a0 be bd
       0.07946777 -0.15637207 -0.03591919 -0.09307861
000060 00 c0 4b bf 00 00 6e be 00 e0 6d be 00 a0 21 be
       -0.79589844 -0.23242188 -0.2322998 -0.15783691
000070 00 80 01 be 00 c0 75 be 00 a0 0c be 00 c0 98 3e
       -0.12646484 -0.23999023 -0.1373291 0.29833984

model_41/tf.math.add_111/Add/y f4 [32]
000000 00 a0 34 bf 00 60 98 be 00 80 1b bf 00 00 2d bf
       -0.7055664 -0.29760742 -0.6074219 -0.67578125
000010 00 e0 1d bf 00 a0 14 bd 00 e0 06 3f 00 e0 91 3f
       -0.6166992 -0.0362854 0.52685547 1.1396484
000020 00 40 87 bf 00 20 02 bf 00 a0 05 bf 00 e0 7f bf
       -1.0566406 -0.5083008 -0.52197266 -0.9995117
000030 00 e0 8f bf 00 c0 27 be 00 20 f7 be 00 00 45 bf
       -1.1240234 -0.16381836 -0.48266602 -0.76953125
000040 00 c0 ae be 00 60 c9 be 00 e0 8b bf 00 40 43 bf
       -0.3413086 -0.39331055 -1.0927734 -0.7626953
000050 00 e0 38 bf 00 40 40 bf 00 20 6e bd 00 60 22 bf
       -0.72216797 -0.75097656 -0.058135986 -0.63427734
000060 00 60 c8 be 00 00 aa 3d 00 a0 5b bf 00 e0 d4 be
       -0.39135742 0.08300781 -0.85791016 -0.41577148
000070 00 60 0f bf 00 80 61 be 00 40 1c bf 00 00 ef be
       -0.5600586 -0.22021484 -0.61035156 -0.46679688

model_41/tf.math.add_118/Add/y f4 [24]
000000 00 e0 1e bf 00 e0 f7 be 00 80 8f bd 00 00 41 bf
       -0.62060547 -0.48413086 -0.07006836 -0.75390625
000010 00 20 40 bf 00 00 c7 bf 00 a0 11 bf 00 c0 f8 be
       -0.7504883 -1.5546875 -0.56884766 -0.48583984
000020 00 c0 61 3e 00 40 12 bf 00 e0 e7 be 00 60 27 bf
       0.22045898 -0.57128906 -0.45288086 -0.6538086
000030 00 20 13 bf 00 e0 3f bd 00 a0 3f bf 00 a0 83 bc
       -0.57470703 -0.046844482 -0.74853516 -0.016067505
000040 00 00 b0 3e 00 80 99 be 00 20 2f bf 00 e0 94 bd
       0.34375 -0.2998047 -0.68408203 -0.07269287
000050 00 80 16 bf 00 a0 67 bf 00 60 e6 3e 00 80 82 bf
       -0.5878906 -0.90478516 0.44995117 -1.0195312

model_41/tf.math.add_125/Add/y f4 [24]
000000 00 c0 9f be 00 80 44 bf 00 a0 21 bf 00 e0 fd bf
       -0.31201172 -0.7675781 -0.63134766 -1.9833984
000010 00 00 da be 00 00 69 bf 00 00 71 3d 00 c0 26 bf
       -0.42578125 -0.91015625 0.05883789 -0.6513672
000020 00 40 c4 bf 00 60 f9 be 00 a0 e9 be 00 e0 99 be
       -1.5332031 -0.48706055 -0.45629883 -0.3005371
000030 00 80 cc 3e 00 00 1f bf 00 60 61 bf 00 e0 52 bf
       0.39941406 -0.62109375 -0.8803711 -0.82373047
000040 00 20 ec bc 00 e0 8b bf 00 e0 8d bf 00 c0 c5 be
       -0.028823853 -1.0927734 -1.1083984 -0.38623047
000050 00 a0 ac be 00 60 10 be 00 60 d0 be 00 80 93 3e
       -0.3371582 -0.14099121 -0.40698242 0.28808594

model_41/tf.math.add_130/Add/y f4 [128]
000000 00 40 13 c0 00 c0 d7 bf 00 00 9e bf 00 80 8a bc
       -2.3007812 -1.6855469 -1.234375 -0.016906738
000010 00 20 73 bf 00 a0 5a bf 00 a0 8a bf 00 60 e1 bf
       -0.94970703 -0.8540039 -1.0830078 -1.7607422
000020 00 a0 aa bf 00 60 a2 bf 00 40 b8 3e 00 60 c0 bf
       -1.3330078 -1.2685547 0.35986328 -1.5029297
000030 00 a0 0a c0 00 20 d9 bf 00 e0 21 bf 00 80 d5 be
       -2.1660156 -1.6962891 -0.6323242 -0.4169922
000040 00 40 7b bf 00 e0 c7 bf 00 80 be bf 00 a0 76 be
       -0.9814453 -1.5615234 -1.4882812 -0.24084473
000050 00 80 cc bf 00 e0 83 bf 00 00 5b bf 00 a0 d6 bf
       -1.5976562 -1.0302734 -0.85546875 -1.6767578
000060 00 00 89 bf 00 20 e6 be 00 60 b2 bf 00 40 05 bf
       -1.0703125 -0.4494629 -1.3935547 -0.5205078
000070 00 20 94 3d 00 a0 02 3f 00 e0 da bf 00 20 43 bf
       0.07232666 0.5102539 -1.7099609 -0.76220703
000080 00 60 e1 be 00 40 b6 bf 00 60 cd 3e 00 e0 3f 3f
       -0.44018555 -1.4238281 0.40112305 0.7495117
000090 00 e0 cd bf 00 00 0f c0 00 40 21 bf 00 c0 57 bf
       -1.6083984 -2.234375 -0.6298828 -0.84277344
0000a0 00 e0 6f be 00 20 26 bd 00 00 dd bf 00 20 08 bf
       -0.23425293 -0.04055786 -1.7265625 -0.5317383
0000b0 00 40 55 bf 00 60 15 bf 00 a0 07 bf 00 80 3c 3f
       -0.8330078 -0.5834961 -0.52978516 0.7363281
0000c0 00 00 c2 bf 00 c0 fe be 00 a0 19 be 00 00 51 bf
       -1.515625 -0.4975586 -0.15002441 -0.81640625
0000d0 00 80 e0 bf 00 60 95 bf 00 20 1f c0 00 c0 04 c0
       -1.7539062 -1.1669922 -2.4863281 -2.0742188
0000e0 00 60 3b 3f 00 60 a3 bf 00 60 37 3f 00 e0 8a bf
       0.7319336 -1.2763672 0.7163086 -1.0849609
0000f0 00 80 11 c0 00 c0 65 bf 00 00 ce be 00 a0 89 bf
       -2.2734375 -0.89746094 -0.40234375 -1.0751953
000100 00 a0 69 bf 00 c0 a6 3e 00 40 0b bf 00 c0 87 bf
       -0.91259766 0.3256836 -0.5439453 -1.0605469
000110 00 80 a5 bf 00 40 5a bf 00 80 4c bf 00 20 a8 bf
       -1.2929688 -0.85253906 -0.7988281 -1.3134766
000120 00 e0 ef bf 00 c0 75 be 00 00 2a be 00 e0 eb bf
       -1.8740234 -0.23999023 -0.16601562 -1.8427734
000130 00 40 87 be 00 00 c3 3d 00 80 82 be 00 a0 19 c0
       -0.26416016 0.095214844 -0.2548828 -2.4003906
000140 00 c0 9e bf 00 c0 49 bf 00 00 00 bf 00 c0 79 bf
       -1.2402344 -0.78808594 -0.5 -0.97558594
000150 00 e0 46 bf 00 40 1b c0 00 60 4e c0 00 e0 94 bf
       -0.77685547 -2.4257812 -3.2246094 -1.1630859
000160 00 a0 2b bf 00 c0 2b c0 00 e0 e6 bf 00 00 89 bf
       -0.67041016 -2.6835938 -1.8037109 -1.0703125
000170 00 20 c1 bf 00 c0 34 bf 00 40 94 bf 00 e0 9f bf
       -1.5087891 -0.7060547 -1.1582031 -1.2490234
000180 00 e0 b5 bf 00 a0 3f c0 00 a0 c0 bf 00 00 e7 be
       -1.4208984 -2.9941406 -1.5048828 -0.45117188
000190 00 40 db bf 00 20 67 bf 00 00 84 bf 00 40 a6 bf
       -1.7128906 -0.90283203 -1.03125 -1.2988281
0001a0 00 e0 f2 bf 00 a0 1a bf 00 00 96 bf 00 60 8c bf
       -1.8974609 -0.6040039 -1.171875 -1.0966797
0001b0 00 c0 2a c0 00 e0 cc be 00 60 f5 be 00 a0 81 bf
       -2.6679688 -0.40014648 -0.47924805 -1.0126953
0001c0 00 a0 ca be 00 60 ac bf 00 40 be 3e 00 00 bd bf
       -0.39575195 -1.3466797 0.37158203 -1.4765625
0001d0 00 c0 e2 3e 00 00 ad be 00 e0 e3 bf 00 40 a7 bf
       0.4428711 -0.33789062 -1.7802734 -1.3066406
0001e0 00 a0 43 bf 00 40 3a bf 00 60 ce bf 00 c0 a0 bf
       -0.76416016 -0.72753906 -1.6123047 -1.2558594
0001f0 00 e0 36 bf 00 c0 81 bf 00 c0 ba be 00 20 f5 bf
       -0.71435547 -1.0136719 -0.3647461 -1.9150391

model_41/tf.math.add_135/Add/y f4 [24]
000000 00 00 df bf 00 c0 36 c0 00 00 08 c0 00 80 49 c0
       -1.7421875 -2.8554688 -2.125 -3.1484375
000010 00 e0 cf bf 00 80 31 3e 00 00 1b c0 00 80 88 bf
       -1.6240234 0.17333984 -2.421875 -1.0664062
000020 00 e0 40 3d 00 e0 45 3f 00 60 da bf 00 20 ca be
       0.047088623 0.7729492 -1.7060547 -0.3947754
000030 00 e0 22 bf 00 80 d9 bf 00 c0 df bf 00 a0 59 bd
       -0.63623047 -1.6992188 -1.7480469 -0.053131104
000040 00 00 db be 00 40 98 bf 00 20 ce bf 00 00 07 c0
       -0.42773438 -1.1894531 -1.6103516 -2.109375
000050 00 a0 c7 bf 00 40 6d 3f 00 60 c8 3d 00 c0 93 bf
       -1.5595703 0.9267578 0.097839355 -1.1542969

model_41/tf.math.add_139/Add/y f4 [24]
000000 00 c0 41 3e 00 80 eb 3e 00 80 a0 3f 00 80 0f 3f
       0.18920898 0.45996094 1.2539062 0.5605469
000010 00 e0 1e 3f 00 c0 64 3f 00 c0 1d 3d 00 e0 a0 3e
       0.62060547 0.8935547 0.038513184 0.31420898
000020 00 60 83 be 00 c0 95 bd 00 20 16 3e 00 60 a3 3f
       -0.2565918 -0.07312012 0.14660645 1.2763672
000030 00 40 52 3e 00 00 56 3f 00 60 7c 3e 00 20 7f 3e
       0.20532227 0.8359375 0.24645996 0.24914551
000040 00 e0 23 3f 00 c0 42 3e 00 c0 80 be 00 80 8f 39
       0.6401367 0.19018555 -0.25146484 0.00027370453
000050 00 00 d3 3d 00 40 59 3f 00 40 27 40 00 60 36 3f
       0.103027344 0.8486328 2.6132812 0.71240234

model_41/tf.math.add_140/Add/y f4 [24]
000000 00 80 2c bf 00 80 93 bf 00 00 9d 3f 00 a0 f2 3f
       -0.6738281 -1.1523438 1.2265625 1.8955078
000010 00 c0 13 3f 00 40 d1 3d 00 c0 50 40 00 a0 b7 be
       0.57714844 0.10217285 3.2617188 -0.35864258
000020 00 60 a6 3c 00 60 ed 3e 00 60 f0 3e 00 e0 94 3f
       0.020309448 0.46362305 0.46948242 1.1630859
000030 00 e0 5c 40 00 a0 96 bf 00 20 3a bf 00 e0 6a 3f
       3.4511719 -1.1767578 -0.7270508 0.91748047
000040 00 40 ca 3d 00 00 3e bf 00 e0 a8 be 00 00 6a bf
       0.09875488 -0.7421875 -0.32983398 -0.9140625
000050 00 c0 84 bc 00 a0 82 bd 00 60 c9 3e 00 c0 cb be
       -0.016204834 -0.06378174 0.39331055 -0.39794922

model_41/tf.math.add_146/Add/y f4 [16]
000000 00 e0 bf bf 00 60 92 bf 00 20 da bf 00 a0 0c 3f
       -1.4990234 -1.1435547 -1.7041016 0.5493164
000010 00 40 62 c0 00 e0 14 3d 00 e0 ea 3e 00 80 5c c0
       -3.5351562 0.036346436 0.45874023 -3.4453125
000020 00 60 b9 bf 00 20 6d bf 00 00 01 bf 00 00 29 c0
       -1.4482422 -0.92626953 -0.50390625 -2.640625
000030 00 20 33 3e 00 80 0e c0 00 20 15 c0 00 00 1c c0
       0.17492676 -2.2265625 -2.3300781 -2.4375

model_41/tf.math.add_150/Add/y f4 [16]
000000 00 c0 b5 3e 00 00 2d 3f 00 e0 f0 3e 00 40 06 be
       0.35498047 0.67578125 0.47045898 -0.13110352
000010 00 40 0f bf 00 c0 93 3f 00 00 43 3f 00 20 ba be
       -0.5595703 1.1542969 0.76171875 -0.3635254
000020 00 e0 29 3f 00 20 d9 3e 00 60 99 be 00 80 4e 3f
       0.6635742 0.42407227 -0.29956055 0.8066406
000030 00 80 a6 3e 00 e0 87 bd 00 20 46 3e 00 80 ab bf
       0.3251953 -0.066345215 0.19348145 -1.3398438

model_41/tf.math.add_151/Add/y f4 [16]
000000 00 a0 46 3f 00 a0 55 3e 00 80 d0 3e 00 80 7d be
       0.7758789 0.20861816 0.40722656 -0.2475586
000010 00 40 d7 bd 00 20 c1 bf 00 c0 d3 ba 00 e0 16 40
       -0.10510254 -1.5087891 -0.0016155243 2.3574219
000020 00 20 34 3d 00 60 41 be 00 e0 06 40 00 00 d1 bd
       0.04397583 -0.18884277 2.1074219 -0.10205078
000030 00 80 23 bf 00 20 92 be 00 a0 c2 bc 00 a0 b4 be
       -0.6386719 -0.2854004 -0.023757935 -0.3527832

model_41/tf.math.add_157/Add/y f4 [16]
000000 00 00 4d bd 00 80 09 c0 00 e0 38 c0 00 e0 8d 3f
       -0.050048828 -2.1484375 -2.8886719 1.1083984
000010 00 80 23 bf 00 c0 47 c0 00 60 a4 bf 00 20 d5 3e
       -0.6386719 -3.1210938 -1.2841797 0.41625977
000020 00 e0 42 3f 00 a0 81 3e 00 20 13 3f 00 80 d7 bf
       0.76123047 0.25317383 0.57470703 -1.6835938
000030 00 a0 90 c0 00 a0 59 3e 00 40 a1 bf 00 80 39 3f
       -4.5195312 0.21252441 -1.2597656 0.7246094

model_41/tf.math.add_161/Add/y f4 [16]
000000 00 20 92 3d 00 a0 0a bf 00 60 b3 bf 00 a0 b2 bf
       0.0713501 -0.5415039 -1.4013672 -1.3955078
000010 00 40 ae bd 00 a0 84 be 00 a0 3e c0 00 00 65 bd
       -0.08508301 -0.2590332 -2.9785156 -0.055908203
000020 00 60 ff 3e 00 80 67 c0 00 40 92 3e 00 a0 93 3e
       0.4987793 -3.6171875 0.28564453 0.28833008
000030 00 00 89 bf 00 e0 e7 bf 00 c0 90 bb 00 80 84 bf
       -1.0703125 -1.8115234 -0.0044174194 -1.0351562

model_41/tf.math.add_162/Add/y f4 [16]
000000 00 60 3a c1 00 a0 1d c0 00 60 30 c0 00 c0 42 c0
       -11.6484375 -2.4628906 -2.7558594 -3.0429688
000010 00 c0 01 c0 00 80 4b bf 00 e0 a9 3f 00 c0 de c1
       -2.0273438 -0.7949219 1.3271484 -27.84375
000020 00 20 45 3c 00 c0 7c 3c 00 40 6b bf 00 40 ba be
       0.012031555 0.015426636 -0.9189453 -0.36376953
000030 00 60 4b c0 00 e0 ae 3f 00 40 7a c1 00 20 bd 3f
       -3.1777344 1.3662109 -15.640625 1.4775391

model_41/tf.math.add_83/Add/y f4 [16]
000000 00 80 7a bf 00 40 ee be 00 80 ef bf 00 40 2b 40
       -0.9785156 -0.46533203 -1.8710938 2.6757812
000010 00 40 10 40 00 e0 27 be 00 a0 73 3f 00 e0 9d 3e
       2.2539062 -0.16394043 0.95166016 0.3083496
000020 00 00 30 40 00 e0 11 40 00 20 6b be 00 80 2a 40
       2.75 2.2792969 -0.22961426 2.6640625
000030 00 00 24 40 00 e0 9c 3f 00 a0 9f 3f 00 00 39 40
       2.5625 1.2255859 1.2470703 2.890625

model_41/tf.math.add_87/Add/y f4 [16]
000000 00 e0 b2 bf 00 c0 48 bf 00 80 60 3f 00 a0 df be
       -1.3974609 -0.7841797 0.8769531 -0.43676758
000010 00 20 b5 3f 00 a0 0e c0 00 e0 24 3f 00 40 89 bf
       1.4150391 -2.2285156 0.64404297 -1.0722656
000020 00 40 93 bf 00 00 28 bf 00 00 3a 3e 00 40 2a be
       -1.1503906 -0.65625 0.18164062 -0.16625977
000030 00 c0 2b bd 00 c0 10 bf 00 80 db be 00 20 7c bf
       -0.041931152 -0.5654297 -0.42871094 -0.9848633

model_41/tf.math.add_88/Add/y f4 [16]
000000 00 00 1a 40 00 20 6f 40 00 c0 c1 bf 00 40 09 c1
       2.40625 3.7363281 -1.5136719 -8.578125
000010 00 a0 62 c0 00 60 66 3f 00 c0 1b c0 00 e0 e5 3f
       -3.5410156 0.89990234 -2.4335938 1.7958984
000020 00 e0 8e c0 00 40 27 c1 00 e0 75 c0 00 60 03 c1
       -4.4648438 -10.453125 -3.8417969 -8.2109375
000030 00 80 fc c0 00 00 b0 3f 00 a0 dd bf 00 00 7d 3f
       -7.890625 1.375 -1.7314453 0.98828125

model_41/tf.math.add_91/Add/y f4 [24]
000000 00 e0 30 40 00 40 42 3f 00 80 80 40 00 00 79 bf
       2.7636719 0.75878906 4.015625 -0.97265625
000010 00 c0 17 40 00 40 8c 40 00 00 34 bf 00 60 b0 40
       2.3710938 4.3828125 -0.703125 5.5117188
000020 00 a0 93 c0 00 a0 4d 40 00 20 8c 40 00 00 a4 3f
       -4.6132812 3.2128906 4.3789062 1.28125
000030 00 e0 74 40 00 a0 53 c0 00 e0 d3 bd 00 c0 f9 3f
       3.8261719 -3.3066406 -0.10345459 1.9511719
000040 00 00 37 3f 00 a0 9d c0 00 20 3a c0 00 a0 c9 be
       0.71484375 -4.9257812 -2.9082031 -0.39379883
000050 00 40 3e c0 00 00 89 be 00 e0 43 40 00 a0 be bf
       -2.9726562 -0.26757812 3.0605469 -1.4892578

model_41/tf.math.add_94/Add/y f4 [24]
000000 00 00 8a c0 00 60 a1 40 00 00 48 40 00 20 dc 3f
       -4.3125 5.0429688 3.125 1.7197266
000010 00 80 93 3f 00 20 03 c0 00 e0 72 c0 00 40 7c 40
       1.1523438 -2.0488281 -3.7949219 3.9414062
000020 00 60 54 c0 00 40 64 be 00 e0 e8 3e 00 a0 ca b9
       -3.3183594 -0.22290039 0.45483398 -0.00038647652
000030 00 e0 32 3e 00 80 14 40 00 a0 43 40 00 00 59 be
       0.17468262 2.3203125 3.0566406 -0.21191406
000040 00 20 43 c0 00 00 87 bf 00 20 be be 00 a0 af 3f
       -3.0488281 -1.0546875 -0.3713379 1.3720703
000050 00 40 ed 40 00 c0 69 40 00 80 36 40 00 00 8c 3f
       7.4140625 3.6523438 2.8515625 1.09375

model_41/tf.math.add_97/Add/y f4 [96]
000000 00 60 84 3e 00 60 dd 3f 00 40 ac 3e 00 80 3f 3f
       0.25854492 1.7294922 0.33642578 0.7480469
000010 00 40 69 bf 00 a0 bd 3f 00 40 7d 3f 00 a0 1d 3f
       -0.9111328 1.4814453 0.9892578 0.61572266
000020 00 c0 93 3d 00 60 64 bf 00 60 7a 3f 00 a0 af bf
       0.072143555 -0.89208984 0.97802734 -1.3720703
000030 00 40 f0 be 00 80 14 3f 00 20 b8 3f 00 e0 d7 be
       -0.46923828 0.5800781 1.4384766 -0.42163086
000040 00 c0 a2 3d 00 e0 0a bf 00 a0 13 40 00 c0 ab be
       0.07946777 -0.54248047 2.3066406 -0.33544922
000050 00 00 64 3f 00 c0 7f bf 00 e0 f4 3f 00 00 af 3f
       0.890625 -0.99902344 1.9130859 1.3671875
000060 00 60 d4 3f 00 60 2f be 00 80 2d 3f 00 20 1c 3e
       1.6591797 -0.17126465 0.6777344 0.15246582
000070 00 40 a1 bf 00 e0 85 3d 00 60 af bf 00 80 33 be
       -1.2597656 0.06536865 -1.3701172 -0.17529297
000080 00 20 ba 3f 00 a0 1e 40 00 c0 4e bf 00 80 05 40
       1.4541016 2.4785156 -0.8076172 2.0859375
000090 00 40 cf 3e 00 e0 df 3e 00 60 d8 bd 00 c0 56 be
       0.40478516 0.43725586 -0.105651855 -0.2097168
0000a0 00 c0 e9 be 00 20 f8 3f 00 40 4d 3f 00 80 d1 3c
       -0.45654297 1.9384766 0.8017578 0.02557373
0000b0 00 e0 ce 40 00 c0 6e bf 00 20 00 bf 00 a0 e4 3f
       6.4648438 -0.9326172 -0.5004883 1.7861328
0000c0 00 40 1a 40 00 00 0c c0 00 40 14 40 00 80 64 3f
       2.4101562 -2.1875 2.3164062 0.8925781
0000d0 00 c0 95 3f 00 a0 b6 3f 00 a0 43 3d 00 00 c8 3f
       1.1699219 1.4267578 0.04776001 1.5625
0000e0 00 e0 51 bf 00 e0 12 3f 00 60 25 40 00 40 06 be
       -0.8198242 0.57373047 2.5839844 -0.13110352
0000f0 00 00 06 be 00 80 40 3d 00 e0 57 3e 00 40 ba 3f
       -0.13085938 0.04699707 0.21081543 1.4550781
000100 00 20 56 bf 00 80 a4 3f 00 60 9b be 00 20 f4 be
       -0.8364258 1.2851562 -0.3034668 -0.47680664
000110 00 40 36 3e 00 60 c9 be 00 e0 46 3f 00 00 e8 3f
       0.17797852 -0.39331055 0.77685547 1.8125
000120 00 40 97 3f 00 c0 04 3e 00 a0 d3 bc 00 e0 19 bf
       1.1816406 0.12963867 -0.02583313 -0.6010742
000130 00 e0 23 3f 00 60 3a c0 00 20 ac bf 00 80 02 40
       0.6401367 -2.9121094 -1.3447266 2.0390625
000140 00 20 f5 3f 00 e0 52 40 00 e0 e1 be 00 40 95 bf
       1.9150391 3.2949219 -0.4411621 -1.1660156
000150 00 a0 c9 bf 00 20 35 40 00 60 91 3f 00 00 86 3f
       -1.5751953 2.8300781 1.1357422 1.046875
000160 00 80 8d 3f 00 c0 40 be 00 40 72 3e 00 80 c1 bf
       1.1054688 -0.18823242 0.23657227 -1.5117188
000170 00 c0 c7 3e 00 00 d9 3e 00 60 09 3f 00 80 95 3f
       0.39013672 0.42382812 0.5366211 1.1679688

model_41/tf.math.add_98/Add/y f4 [96]
000000 00 20 54 be 00 60 d8 bf 00 e0 02 bf 00 40 b0 3e
       -0.20715332 -1.6904297 -0.51123047 0.34423828
000010 00 00 0e 3e 00 80 c8 bf 00 a0 47 3e 00 00 53 bf
       0.13867188 -1.5664062 0.19494629 -0.82421875
000020 00 e0 17 be 00 40 70 bf 00 60 84 bf 00 00 03 3f
       -0.14831543 -0.93847656 -1.0341797 0.51171875
000030 00 20 89 bf 00 80 25 3f 00 60 59 bf 00 60 c8 be
       -1.0712891 0.6464844 -0.8491211 -0.39135742
000040 00 60 5c bf 00 40 e9 be 00 60 97 bf 00 60 50 bf
       -0.86083984 -0.4555664 -1.1826172 -0.81396484
000050 00 e0 3e bf 00 00 fc bd 00 a0 46 40 00 60 20 3e
       -0.74560547 -0.123046875 3.1035156 0.15661621
000060 00 40 b3 bf 00 60 a5 3f 00 40 6a bd 00 20 9e 3f
       -1.4003906 1.2919922 -0.05718994 1.2353516
000070 00 c0 03 3e 00 a0 11 bf 00 60 24 3e 00 e0 72 c0
       0.12866211 -0.56884766 0.16052246 -3.7949219
000080 00 20 21 3f 00 a0 35 40 00 60 86 be 00 60 da be
       0.62939453 2.8378906 -0.26245117 -0.42651367
000090 00 e0 b5 be 00 60 81 3f 00 c0 92 3f 00 60 c7 3e
       -0.3552246 1.0107422 1.1464844 0.3894043
0000a0 00 60 78 3d 00 c0 4f 3f 00 60 b5 3f 00 a0 57 3e
       0.060638428 0.81152344 1.4169922 0.21057129
0000b0 00 00 fc be 00 60 d9 bf 00 60 05 bf 00 80 5d 3e
       -0.4921875 -1.6982422 -0.5209961 0.2163086
0000c0 00 40 16 3f 00 80 0a 3f 00 80 0e c0 00 20 07 40
       0.58691406 0.5410156 -2.2265625 2.1113281
0000d0 00 60 0f bf 00 e0 03 bf 00 80 e5 be 00 80 12 3f
       -0.5600586 -0.5151367 -0.4482422 0.5722656
0000e0 00 40 a1 3f 00 80 83 3f 00 60 ba 3f 00 80 c4 be
       1.2597656 1.0273438 1.4560547 -0.38378906
0000f0 00 00 cb 3e 00 00 4f bf 00 80 88 3f 00 60 f0 3e
       0.39648438 -0.80859375 1.0664062 0.46948242
000100 00 20 2b bf 00 20 7d c0 00 00 c2 3e 00 00 23 bd
       -0.66845703 -3.9550781 0.37890625 -0.039794922
000110 00 40 4b 3f 00 40 c9 3d 00 60 6a bf 00 c0 fb 3f
       0.7939453 0.0982666 -0.91552734 1.9667969
000120 00 c0 eb 3f 00 80 e6 be 00 e0 80 be 00 00 3f 3f
       1.8417969 -0.4501953 -0.25170898 0.74609375
000130 00 00 e5 3f 00 40 13 be 00 e0 72 3f 00 80 30 40
       1.7890625 -0.14379883 0.94873047 2.7578125
000140 00 60 2f 40 00 60 96 3f 00 20 2c 3f 00 60 e6 3e
       2.7402344 1.1748047 0.6723633 0.44995117
000150 00 00 01 3e 00 a0 90 c0 00 40 bf be 00 c0 77 3f
       0.12597656 -4.5195312 -0.37353516 0.96777344
000160 00 80 ed be 00 40 8d bf 00 e0 36 3e 00 00 4b c0
       -0.4638672 -1.1035156 0.17858887 -3.171875
000170 00 80 ce be 00 a0 5a 3d 00 c0 b1 bd 00 a0 02 3f
       -0.4033203 0.053375244 -0.08679199 0.5102539

model_41/tf.math.add_100/Add/y f4 [96]
000000 00 40 9b 3e 00 60 11 40 00 e0 b3 3e 00 60 4a 40
       0.30322266 2.2714844 0.35131836 3.1621094
000010 00 e0 d4 bd 00 60 3f 3f 00 e0 05 40 00 00 cd 3f
       -0.10394287 0.7475586 2.0917969 1.6015625
000020 00 e0 1c 3f 00 60 ce 3f 00 80 23 40 00 c0 f8 3f
       0.61279297 1.6123047 2.5546875 1.9433594
000030 00 00 63 3f 00 80 04 be 00 a0 27 40 00 e0 fb 3f
       0.88671875 -0.12939453 2.6191406 1.9677734
000040 00 00 1c 3f 00 20 f9 3f 00 a0 d5 3f 00 60 86 3f
       0.609375 1.9462891 1.6689453 1.0498047
000050 00 a0 00 40 00 20 72 3f 00 00 0c 3f 00 a0 a2 3f
       2.0097656 0.9458008 0.546875 1.2705078
000060 00 80 29 40 00 20 53 3e 00 60 59 3f 00 00 1f 40
       2.6484375 0.20617676 0.8491211 2.484375
000070 00 c0 b3 3f 00 c0 bb 3f 00 e0 26 c0 00 80 ea 3d
       1.4042969 1.4667969 -2.6074219 0.11450195
000080 00 a0 e7 3f 00 40 0e 3f 00 80 1b 40 00 e0 97 3f
       1.8095703 0.55566406 2.4296875 1.1865234
000090 00 00 a7 bd 00 20 1f 40 00 c0 47 3f 00 a0 3c 40
       -0.08154297 2.4863281 0.78027344 2.9472656
0000a0 00 c0 7f 3f 00 80 40 40 00 00 32 3f 00 e0 f9 3f
       0.99902344 3.0078125 0.6953125 1.9521484
0000b0 00 20 ce bd 00 40 a1 3f 00 e0 a1 3f 00 80 93 3f
       -0.10064697 1.2597656 1.2646484 1.1523438
0000c0 00 00 0a 40 00 80 be 3f 00 20 82 3f 00 20 55 3e
       2.15625 1.4882812 1.0166016 0.20812988
0000d0 00 a0 d2 3f 00 a0 11 40 00 00 cb 3f 00 e0 93 3e
       1.6455078 2.2753906 1.5859375 0.28881836
0000e0 00 20 0b 40 00 c0 17 40 00 60 3f 40 00 20 e3 bf
       2.1738281 2.3710938 2.9902344 -1.7744141
0000f0 00 00 88 bf 00 c0 6a bd 00 c0 74 3f 00 80 78 bf
       -1.0625 -0.05731201 0.9560547 -0.9707031
000100 00 20 16 40 00 20 11 3f 00 40 b3 bf 00 e0 33 40
       2.3457031 0.56689453 -1.4003906 2.8105469
000110 00 40 4e 40 00 e0 0e 40 00 e0 55 bf 00 80 3d 40
       3.2226562 2.2324219 -0.8354492 2.9609375
000120 00 80 18 40 00 00 01 40 00 80 e3 3f 00 00 4a 40
       2.3828125 2.015625 1.7773438 3.15625
000130 00 60 a1 3e 00 60 16 40 00 e0 53 3f 00 a0 01 3f
       0.31518555 2.3496094 0.8276367 0.50634766
000140 00 40 e3 bf 00 00 1c 40 00 60 b2 3f 00 60 e5 3f
       -1.7753906 2.4375 1.3935547 1.7919922
000150 00 c0 a2 3f 00 e0 4a 3f 00 60 1a 40 00 60 ab 3f
       1.2714844 0.79248047 2.4121094 1.3388672
000160 00 00 1c 40 00 20 0f 40 00 80 92 3f 00 80 f1 3f
       2.4375 2.2363281 1.1445312 1.8867188
000170 00 20 8e 3f 00 40 b8 3e 00 a0 98 3f 00 c0 39 3f
       1.1103516 0.35986328 1.1923828 0.72558594

model_41/tf.math.add_101/Add/y f4 [32]
000000 00 c0 04 be 00 80 20 3f 00 60 79 3e 00 40 46 bf
       -0.12963867 0.6269531 0.24353027 -0.77441406
000010 00 e0 7e 3d 00 40 c3 be 00 40 9d 3e 00 20 be be
       0.06222534 -0.38134766 0.3071289 -0.3713379
000020 00 c0 7a 3f 00 e0 28 3d 00 c0 ad bf 00 e0 c5 3e
       0.9794922 0.041229248 -1.3574219 0.3864746
000030 00 60 04 bf 00 40 d0 3d 00 20 a1 3c 00 c0 80 3c
       -0.51708984 0.10168457 0.01966858 0.015716553
000040 00 20 af ba 00 20 33 3e 00 20 1e bf 00 80 00 3e
       -0.0013360977 0.17492676 -0.6176758 0.12548828
000050 00 a0 8a be 00 40 b5 3e 00 60 9f be 00 80 26 bf
       -0.27075195 0.3540039 -0.3112793 -0.6503906
000060 00 40 f0 3e 00 80 82 3f 00 00 b4 be 00 e0 5b be
       0.46923828 1.0195312 -0.3515625 -0.21472168
000070 00 e0 86 be 00 a0 57 3f 00 00 57 bf 00 80 77 3f
       -0.26342773 0.84228516 -0.83984375 0.9667969

model_41/tf.math.add_102/Add/y f4 [128]
000000 00 c0 60 bf 00 a0 4a bf 00 40 41 40 00 a0 67 bd
       -0.8779297 -0.7915039 3.0195312 -0.056549072
000010 00 c0 4e bf 00 60 75 3f 00 40 68 bf 00 20 40 3e
       -0.8076172 0.9584961 -0.90722656 0.18762207
000020 00 40 b7 3f 00 a0 9a be 00 80 70 3f 00 a0 a1 3f
       1.4316406 -0.30200195 0.9394531 1.2626953
000030 00 00 69 3f 00 c0 93 bf 00 e0 03 40 00 20 07 bf
       0.91015625 -1.1542969 2.0605469 -0.52783203
000040 00 c0 69 3d 00 c0 1e 40 00 c0 a0 3e 00 e0 da be
       0.05706787 2.4804688 0.31396484 -0.42749023
000050 00 a0 b1 3e 00 80 14 bd 00 20 5e bf 00 60 f5 be
       0.34692383 -0.036254883 -0.8676758 -0.47924805
000060 00 e0 e3 bd 00 60 06 bf 00 80 2c 3f 00 40 e2 3f
       -0.11126709 -0.52490234 0.6738281 1.7675781
000070 00 60 ce bf 00 a0 e7 3f 00 a0 75 be 00 20 0e 3f
       -1.6123047 1.8095703 -0.23986816 0.5551758
000080 00 20 6a be 00 20 f2 3e 00 40 12 3d 00 60 c0 3f
       -0.2286377 0.4729004 0.035705566 1.5029297
000090 00 e0 18 be 00 60 6a bf 00 40 4f bc 00 20 9c 3e
       -0.14929199 -0.91552734 -0.012649536 0.30493164
0000a0 00 40 90 3f 00 60 33 3f 00 40 17 3f 00 e0 95 bf
       1.1269531 0.7006836 0.5908203 -1.1708984
0000b0 00 a0 bd 3f 00 e0 5e be 00 00 ac 3e 00 80 67 bd
       1.4814453 -0.21765137 0.3359375 -0.056518555
0000c0 00 20 47 40 00 20 46 40 00 e0 e6 bc 00 00 20 bf
       3.1113281 3.0957031 -0.028182983 -0.625
0000d0 00 80 78 3d 00 c0 8c 3f 00 00 22 3d 00 20 e7 3f
       0.060668945 1.0996094 0.03955078 1.8056641
0000e0 00 e0 ba bd 00 c0 d5 be 00 00 d1 3f 00 80 29 bc
       -0.09124756 -0.41748047 1.6328125 -0.010345459
0000f0 00 a0 28 40 00 40 ae be 00 00 a3 3e 00 a0 c5 3f
       2.6347656 -0.34033203 0.31835938 1.5439453
000100 00 60 ad 3f 00 20 82 3f 00 a0 a2 3f 00 40 a3 be
       1.3544922 1.0166016 1.2705078 -0.31884766
000110 00 80 36 3e 00 00 e8 3f 00 20 9f 3e 00 00 23 3f
       0.17822266 1.8125 0.31079102 0.63671875
000120 00 80 9a 3f 00 60 87 bf 00 60 86 be 00 20 d7 3f
       1.2070312 -1.0576172 -0.26245117 1.6806641
000130 00 20 55 bc 00 e0 2d bf 00 80 ec 3e 00 a0 fd 3c
       -0.013008118 -0.6791992 0.46191406 0.030960083
000140 00 a0 3e bf 00 c0 f4 be 00 a0 1c 3f 00 a0 7e bf
       -0.7446289 -0.47802734 0.6118164 -0.9946289
000150 00 80 d5 3f 00 e0 de be 00 c0 93 bc 00 00 03 40
       1.6679688 -0.43530273 -0.018035889 2.046875
000160 00 a0 05 be 00 80 8c 3d 00 60 88 bf 00 a0 87 3e
       -0.13049316 0.068603516 -1.0654297 0.26489258
000170 00 60 8c be 00 e0 65 bf 00 00 d7 3f 00 60 10 40
       -0.27416992 -0.8979492 1.6796875 2.2558594
000180 00 40 57 bd 00 a0 74 bf 00 40 88 be 00 e0 c9 3f
       -0.05255127 -0.9555664 -0.26611328 1.5771484
000190 00 80 93 be 00 e0 9d 3f 00 00 2b bf 00 80 b0 3f
       -0.28808594 1.2333984 -0.66796875 1.3789062
0001a0 00 00 a9 3f 00 40 96 be 00 40 cf bd 00 00 0e be
       1.3203125 -0.29345703 -0.10119629 -0.13867188
0001b0 00 60 48 3f 00 00 a0 3e 00 c0 8e 3f 00 e0 0d 40
       0.78271484 0.3125 1.1152344 2.2167969
0001c0 00 60 24 3f 00 60 81 3f 00 40 09 40 00 80 d0 3e
       0.64208984 1.0107422 2.1445312 0.40722656
0001d0 00 40 87 bf 00 40 a8 bf 00 e0 bb be 00 c0 e0 3f
       -1.0566406 -1.3144531 -0.36694336 1.7558594
0001e0 00 80 95 be 00 20 d8 3d 00 a0 14 3c 00 e0 6a 3f
       -0.2919922 0.105529785 0.00907135 0.91748047
0001f0 00 80 83 bf 00 c0 69 3f 00 c0 e2 3f 00 c0 44 3f
       -1.0273438 0.91308594 1.7714844 0.7685547

model_41/tf.math.add_103/Add/y f4 [128]
000000 00 60 2e 3f 00 60 ba 3e 00 80 48 40 00 00 08 3e
       0.68115234 0.36401367 3.1328125 0.1328125
000010 00 60 91 3f 00 40 2f 3f 00 60 29 3e 00 40 94 bf
       1.1357422 0.6845703 0.16540527 -1.1582031
000020 00 80 8c bf 00 a0 0a bf 00 40 1a c0 00 80 10 3e
       -1.0976562 -0.5415039 -2.4101562 0.14111328
000030 00 c0 20 c0 00 00 69 3f 00 a0 76 40 00 e0 c6 bd
       -2.5117188 0.91015625 3.8535156 -0.09710693
000040 00 40 94 3f 00 c0 0f c0 00 40 8d 3f 00 60 1e be
       1.1582031 -2.2460938 1.1035156 -0.15466309
000050 00 80 c4 be 00 60 8a be 00 00 b4 39 00 e0 97 3f
       -0.38378906 -0.27026367 0.00034332275 1.1865234
000060 00 60 25 bf 00 e0 3c bf 00 20 4a 3f 00 a0 3e bf
       -0.6459961 -0.73779297 0.7895508 -0.7446289
000070 00 00 a5 be 00 00 5f 40 00 60 f0 3e 00 80 d7 bc
       -0.32226562 3.484375 0.46948242 -0.026306152
000080 00 c0 e3 bf 00 80 b0 3e 00 20 fb bf 00 c0 99 be
       -1.7792969 0.34472656 -1.9619141 -0.30029297
000090 00 e0 c7 3e 00 c0 b9 be 00 c0 62 3f 00 c0 19 bf
       0.39038086 -0.36279297 0.8857422 -0.60058594
0000a0 00 e0 e0 3f 00 a0 c1 3f 00 20 d0 3e 00 e0 d3 be
       1.7568359 1.5126953 0.40649414 -0.41381836
0000b0 00 a0 9e 3f 00 40 a4 3d 00 e0 3a be 00 a0 28 bf
       1.2392578 0.080200195 -0.18249512 -0.6586914
0000c0 00 40 a3 3d 00 e0 86 40 00 40 63 bf 00 e0 9f 3e
       0.079711914 4.2148438 -0.8876953 0.31225586
0000d0 00 40 65 bf 00 60 13 3f 00 80 13 bf 00 c0 f6 3e
       -0.8955078 0.5756836 -0.5761719 0.4819336
0000e0 00 c0 2a bf 00 20 07 be 00 80 79 3f 00 40 ec be
       -0.6669922 -0.13195801 0.9746094 -0.46142578
0000f0 00 e0 b4 3d 00 a0 b6 3f 00 60 96 bf 00 00 23 c0
       0.08831787 1.4267578 -1.1748047 -2.546875
000100 00 80 8a 3f 00 c0 89 3f 00 20 dd 3f 00 e0 84 be
       1.0820312 1.0761719 1.7275391 -0.25952148
000110 00 40 a1 bf 00 e0 ba be 00 e0 59 3f 00 a0 57 3f
       -1.2597656 -0.36499023 0.8510742 0.84228516
000120 00 80 cf 3d 00 e0 7c 3f 00 40 b3 bf 00 40 05 c0
       0.10131836 0.98779297 -1.4003906 -2.0820312
000130 00 a0 71 3f 00 a0 3f 3f 00 00 8f bd 00 60 bb 3f
       0.94384766 0.74853516 -0.06982422 1.4638672
000140 00 80 e6 bf 00 c0 c7 bf 00 e0 14 3f 00 60 54 bf
       -1.8007812 -1.5605469 0.58154297 -0.82958984
000150 00 c0 6a c0 00 20 27 bf 00 a0 23 bf 00 80 25 40
       -3.6679688 -0.65283203 -0.63916016 2.5859375
000160 00 c0 57 3f 00 00 eb bf 00 60 35 3e 00 60 83 3e
       0.84277344 -1.8359375 0.17712402 0.2565918
000170 00 e0 76 be 00 20 60 3e 00 a0 29 bf 00 20 ab 3f
       -0.24108887 0.21887207 -0.66259766 1.3369141
000180 00 60 a4 be 00 60 56 3f 00 40 b6 bf 00 80 0e 40
       -0.32104492 0.83740234 -1.4238281 2.2265625
000190 00 a0 4a 3f 00 a0 09 c0 00 20 4a 3f 00 a0 09 40
       0.7915039 -2.1503906 0.7895508 2.1503906
0001a0 00 e0 22 be 00 40 53 be 00 a0 f3 be 00 00 bb be
       -0.15905762 -0.20629883 -0.47583008 -0.36523438
0001b0 00 a0 df 3f 00 a0 22 3e 00 80 7d bf 00 e0 82 bd
       1.7470703 0.15881348 -0.9902344 -0.06390381
0001c0 00 20 99 bf 00 a0 87 be 00 e0 42 3f 00 00 f4 3e
       -1.1962891 -0.26489258 0.76123047 0.4765625
0001d0 00 40 fe 3f 00 40 26 3f 00 00 15 bd 00 c0 28 3f
       1.9863281 0.64941406 -0.036376953 0.6591797
0001e0 00 80 32 bf 00 e0 d2 3e 00 c0 24 bf 00 a0 ee 3d
       -0.6972656 0.41186523 -0.6435547 0.11651611
0001f0 00 40 7b 3f 00 80 1e 3f 00 a0 b6 3f 00 00 3c 3f
       0.9814453 0.6191406 1.4267578 0.734375

model_41/tf.math.add_105/Add/y f4 [128]
000000 00 e0 4d 40 00 60 d2 3f 00 60 13 40 00 a0 56 3f
       3.2167969 1.6435547 2.3027344 0.8383789
000010 00 60 9a 40 00 e0 aa 3f 00 80 88 40 00 a0 1d 40
       4.8242188 1.3349609 4.265625 2.4628906
000020 00 80 67 40 00 40 29 3f 00 40 b3 3e 00 60 b6 3f
       3.6171875 0.6611328 0.35009766 1.4248047
000030 00 c0 66 3f 00 e0 38 3f 00 00 13 3f 00 e0 da 3f
       0.9013672 0.72216797 0.57421875 1.7099609
000040 00 a0 8f 40 00 60 04 40 00 40 30 40 00 a0 d5 3f
       4.4882812 2.0683594 2.7539062 1.6689453
000050 00 e0 3b 40 00 40 67 3f 00 e0 18 40 00 20 0e 40
       2.9355469 0.9033203 2.3886719 2.2207031
000060 00 00 e4 3f 00 60 a7 3f 00 60 88 40 00 00 a2 3d
       1.78125 1.3076172 4.2617188 0.07910156
000070 00 e0 0c 40 00 c0 8a 3f 00 60 1b 3f 00 e0 df 3e
       2.2011719 1.0839844 0.6069336 0.43725586
000080 00 60 b0 3f 00 a0 e4 3f 00 80 24 3f 00 a0 fa 3f
       1.3779297 1.7861328 0.6425781 1.9580078
000090 00 20 45 40 00 00 4e 40 00 c0 c3 3f 00 20 4c 3f
       3.0800781 3.21875 1.5292969 0.7973633
0000a0 00 60 55 40 00 80 17 40 00 20 8b 3f 00 a0 6b 40
       3.3339844 2.3671875 1.0869141 3.6816406
0000b0 00 e0 f3 3f 00 a0 c0 3f 00 c0 c6 3e 00 a0 ae bf
       1.9052734 1.5048828 0.3881836 -1.3642578
0000c0 00 00 0f 40 00 80 92 40 00 20 12 40 00 a0 15 40
       2.234375 4.578125 2.2832031 2.3378906
0000d0 00 c0 22 40 00 a0 53 40 00 e0 ce 3f 00 c0 ae 3f
       2.5429688 3.3066406 1.6162109 1.3652344
0000e0 00 a0 c4 3f 00 c0 48 3f 00 00 33 40 00 c0 39 3f
       1.5361328 0.7841797 2.796875 0.72558594
0000f0 00 00 58 40 00 00 7a 40 00 00 9e 3f 00 c0 f0 3f
       3.375 3.90625 1.234375 1.8808594
000100 00 60 86 3f 00 00 66 40 00 00 68 40 00 a0 25 40
       1.0498047 3.59375 3.625 2.5878906
000110 00 a0 b0 3f 00 00 a9 3f 00 40 3f 40 00 e0 a5 be
       1.3798828 1.3203125 2.9882812 -0.3239746
000120 00 80 57 40 00 00 17 40 00 40 a9 3f 00 c0 a5 3f
       3.3671875 2.359375 1.3222656 1.2949219
000130 00 c0 13 40 00 00 42 40 00 20 77 40 00 80 32 40
       2.3085938 3.03125 3.8613281 2.7890625
000140 00 e0 f0 3f 00 00 f1 3f 00 20 d9 3f 00 20 8d 3f
       1.8818359 1.8828125 1.6962891 1.1025391
000150 00 00 30 40 00 c0 d1 3f 00 40 94 3f 00 e0 e8 3f
       2.75 1.6386719 1.1582031 1.8193359
000160 00 20 e3 3f 00 80 ba bd 00 80 7b bf 00 c0 5e 3f
       1.7744141 -0.09106445 -0.9824219 0.8701172
000170 00 a0 f5 3e 00 c0 fa 3f 00 60 b0 be 00 00 24 40
       0.47973633 1.9589844 -0.34448242 2.5625
000180 00 80 6e 3f 00 a0 b9 3f 00 20 8b 3f 00 a0 1b 40
       0.9316406 1.4501953 1.0869141 2.4316406
000190 00 60 5d 40 00 a0 e8 3f 00 c0 1b 40 00 00 3d 3e
       3.4589844 1.8173828 2.4335938 0.18457031
0001a0 00 80 35 40 00 c0 c3 3f 00 e0 f9 3f 00 e0 20 40
       2.8359375 1.5292969 1.9521484 2.5136719
0001b0 00 e0 ba 3f 00 a0 83 40 00 e0 33 40 00 60 f1 3e
       1.4599609 4.1132812 2.8105469 0.47143555
0001c0 00 e0 37 3e 00 20 c8 3f 00 20 75 3f 00 80 bf 3f
       0.17956543 1.5634766 0.95751953 1.4960938
0001d0 00 80 6d 3f 00 a0 ce 3f 00 a0 15 40 00 00 95 bd
       0.9277344 1.6142578 2.3378906 -0.072753906
0001e0 00 80 30 40 00 a0 64 40 00 00 d8 3f 00 00 7a 40
       2.7578125 3.5722656 1.6875 3.90625
0001f0 00 20 8b 40 00 20 78 3f 00 e0 23 40 00 a0 a0 3f
       4.3476562 0.9692383 2.5605469 1.2548828

model_41/tf.math.add_106/Add/y f4 [32]
000000 00 80 99 3f 00 20 e4 3e 00 40 5d 3f 00 60 a5 be
       1.1992188 0.44555664 0.8642578 -0.32299805
000010 00 c0 9a bf 00 20 fd 3e 00 00 e7 3f 00 00 d1 3e
       -1.2089844 0.49438477 1.8046875 0.40820312
000020 00 60 bd be 00 60 b2 be 00 e0 eb be 00 00 00 3e
       -0.36987305 -0.34838867 -0.46069336 0.125
000030 00 20 10 bf 00 20 ff 3d 00 80 36 bd 00 e0 8e 3f
       -0.5629883 0.124572754 -0.044555664 1.1162109
000040 00 c0 8f be 00 00 a3 3f 00 80 95 bf 00 e0 1e bc
       -0.28076172 1.2734375 -1.1679688 -0.00969696
000050 00 20 1b 3f 00 20 7e 3d 00 e0 90 be 00 80 6f 3d
       0.60595703 0.062042236 -0.28295898 0.05847168
000060 00 c0 05 3f 00 e0 b5 be 00 c0 b6 be 00 a0 07 3f
       0.52246094 -0.3552246 -0.3569336 0.52978516
000070 00 20 83 bf 00 e0 98 3f 00 40 9e bf 00 c0 f3 3f
       -1.0244141 1.1943359 -1.2363281 1.9042969

model_41/tf.math.add_109/Add/y f4 [128]
000000 00 00 15 40 00 40 6f 3f 00 00 2f 40 00 80 f5 bd
       2.328125 0.9345703 2.734375 -0.11987305
000010 00 c0 6e be 00 20 5d bf 00 c0 0c c0 00 60 90 3f
       -0.2331543 -0.86376953 -2.1992188 1.1279297
000020 00 60 99 3f 00 80 51 bf 00 c0 aa 3e 00 00 f3 be
       1.1982422 -0.8183594 0.3334961 -0.47460938
000030 00 c0 a0 3e 00 20 21 bf 00 80 15 3f 00 60 a0 bd
       0.31396484 -0.62939453 0.5839844 -0.078308105
000040 00 40 a1 bf 00 00 b9 3e 00 a0 55 bf 00 00 46 bf
       -1.2597656 0.36132812 -0.83447266 -0.7734375
000050 00 00 a0 bf 00 e0 65 bf 00 e0 83 3e 00 e0 07 3f
       -1.25 -0.8979492 0.25756836 0.5307617
000060 00 80 88 3e 00 c0 2a 40 00 00 17 3f 00 c0 80 3f
       0.26660156 2.6679688 0.58984375 1.0058594
000070 00 80 4b bf 00 20 09 c0 00 00 45 bf 00 80 d2 3f
       -0.7949219 -2.1425781 -0.76953125 1.6445312
000080 00 a0 6a 3e 00 60 1f be 00 20 18 40 00 40 ef bf
       0.22912598 -0.15563965 2.3769531 -1.8691406
000090 00 80 05 40 00 20 0d be 00 a0 7f bf 00 20 26 bf
       2.0859375 -0.13781738 -0.99853516 -0.6489258
0000a0 00 c0 7c bf 00 80 a1 bf 00 20 e6 3f 00 00 1f bf
       -0.9873047 -1.2617188 1.7978516 -0.62109375
0000b0 00 a0 06 bd 00 00 72 bf 00 80 bb bf 00 40 a3 3f
       -0.03286743 -0.9453125 -1.4648438 1.2753906
0000c0 00 00 2c 3f 00 a0 0e bf 00 c0 82 bf 00 c0 63 bf
       0.671875 -0.5571289 -1.0214844 -0.88964844
0000d0 00 40 ab 3f 00 a0 0e be 00 c0 ef bf 00 60 8c 3f
       1.3378906 -0.13928223 -1.8730469 1.0966797
0000e0 00 00 d6 be 00 a0 64 3f 00 e0 fd 3f 00 80 3c 3f
       -0.41796875 0.8930664 1.9833984 0.7363281
0000f0 00 40 0c 3f 00 e0 8c bf 00 c0 13 40 00 20 bb bf
       0.54785156 -1.1005859 2.3085938 -1.4619141
000100 00 a0 0a bf 00 60 87 bf 00 c0 10 3f 00 80 17 bf
       -0.5415039 -1.0576172 0.5654297 -0.5917969
000110 00 a0 72 bf 00 20 b9 bf 00 80 74 bf 00 c0 a6 3f
       -0.9477539 -1.4462891 -0.9550781 1.3027344
000120 00 a0 f1 3e 00 20 ae 3b 00 60 5c bf 00 60 75 bf
       0.47192383 0.0053138733 -0.86083984 -0.9584961
000130 00 e0 4f be 00 00 9e bf 00 c0 95 bf 00 60 1f 3f
       -0.20300293 -1.234375 -1.1699219 0.6225586
000140 00 a0 07 bf 00 20 62 bf 00 60 77 3e 00 80 90 bf
       -0.52978516 -0.8833008 0.24157715 -1.1289062
000150 00 c0 2c bf 00 e0 0f 40 00 20 22 40 00 00 61 bd
       -0.6748047 2.2480469 2.5332031 -0.05493164
000160 00 60 d5 3f 00 40 8e 3f 00 20 02 c0 00 60 20 3e
       1.6669922 1.1113281 -2.0332031 0.15661621
000170 00 a0 a2 bf 00 c0 79 bf 00 a0 90 3e 00 60 b7 be
       -1.2705078 -0.97558594 0.2824707 -0.3581543
000180 00 c0 f4 bd 00 60 a7 3f 00 60 c6 3e 00 80 b7 3f
       -0.119506836 1.3076172 0.38745117 1.4335938
000190 00 60 f5 bf 00 c0 d5 bf 00 20 f4 3e 00 40 e3 3f
       -1.9169922 -1.6699219 0.47680664 1.7753906
0001a0 00 e0 45 c0 00 00 28 bf 00 a0 54 bd 00 40 81 3f
       -3.0917969 -0.65625 -0.0519104 1.0097656
0001b0 00 e0 38 bf 00 40 89 3e 00 a0 24 c0 00 60 82 be
       -0.72216797 0.2680664 -2.5722656 -0.25463867
0001c0 00 a0 58 3d 00 40 ad bf 00 40 9d be 00 60 25 bf
       0.052886963 -1.3535156 -0.3071289 -0.6459961
0001d0 00 80 52 3d 00 c0 e7 be 00 60 56 3e 00 20 03 bf
       0.0513916 -0.45263672 0.20935059 -0.51220703
0001e0 00 80 15 bf 00 a0 ec bf 00 e0 29 bf 00 60 89 3f
       -0.5839844 -1.8486328 -0.6635742 1.0732422
0001f0 00 e0 02 bf 00 a0 dd 3f 00 00 12 bf 00 20 cc 3f
       -0.51123047 1.7314453 -0.5703125 1.5947266

model_41/tf.math.add_110/Add/y f4 [128]
000000 00 00 82 bf 00 c0 67 3c 00 e0 e2 3f 00 20 b1 3e
       -1.015625 0.014144897 1.7724609 0.34594727
000010 00 60 fd ba 00 e0 cd 3e 00 c0 9e 3d 00 40 10 bc
       -0.0019330978 0.4020996 0.07751465 -0.008804321
000020 00 20 55 c0 00 60 86 bf 00 40 2d 3e 00 40 68 3d
       -3.3300781 -1.0498047 0.16918945 0.05670166
000030 00 a0 2e bf 00 00 7f 3e 00 20 34 bf 00 20 23 bf
       -0.6821289 0.24902344 -0.7036133 -0.63720703
000040 00 e0 dd 3e 00 e0 d3 3e 00 e0 aa be 00 80 2e be
       0.4333496 0.41381836 -0.33374023 -0.17041016
000050 00 20 7c bd 00 60 bd bf 00 e0 1a c0 00 40 af bf
       -0.061553955 -1.4794922 -2.4199219 -1.3691406
000060 00 e0 12 bd 00 40 b5 3f 00 80 f4 3e 00 00 dd bd
       -0.035858154 1.4160156 0.47753906 -0.107910156
000070 00 e0 d0 3c 00 40 92 be 00 60 b0 3a 00 c0 26 3f
       0.025497437 -0.28564453 0.0013456345 0.6513672
000080 00 60 84 3d 00 a0 4e bf 00 c0 35 3e 00 80 00 c0
       0.06463623 -0.8071289 0.17749023 -2.0078125
000090 00 00 3a bd 00 c0 bc be 00 00 75 bf 00 20 30 bd
       -0.045410156 -0.36865234 -0.95703125 -0.042999268
0000a0 00 40 51 be 00 40 a1 be 00 c0 17 40 00 c0 b4 be
       -0.2043457 -0.3149414 2.3710938 -0.35302734
0000b0 00 c0 b2 3e 00 e0 29 bf 00 40 63 3f 00 20 12 3f
       0.3491211 -0.6635742 0.8876953 0.5708008
0000c0 00 c0 21 bf 00 c0 70 bd 00 a0 dd be 00 a0 64 3d
       -0.63183594 -0.058776855 -0.43286133 0.05581665
0000d0 00 a0 49 3f 00 e0 0b 3f 00 40 94 bf 00 c0 d9 bf
       0.78759766 0.5463867 -1.1582031 -1.7011719
0000e0 00 a0 94 3e 00 20 96 3e 00 40 d5 be 00 40 9e be
       0.2902832 0.2932129 -0.4165039 -0.30908203
0000f0 00 a0 c0 3e 00 80 3a 3f 00 20 78 3f 00 00 ae be
       0.3762207 0.7285156 0.9692383 -0.33984375
000100 00 e0 a3 be 00 60 8f bf 00 e0 52 3f 00 80 45 3e
       -0.32006836 -1.1201172 0.82373047 0.1928711
000110 00 c0 f4 bd 00 a0 de 3d 00 e0 66 3e 00 80 c8 3f
       -0.119506836 0.10870361 0.22546387 1.5664062
000120 00 20 81 3e 00 a0 e2 bf 00 e0 fc bd 00 c0 85 3d
       0.25219727 -1.7705078 -0.12347412 0.06530762
000130 00 20 14 3f 00 20 46 3e 00 c0 cb 3d 00 40 11 bf
       0.5786133 0.19348145 0.099487305 -0.5673828
000140 00 e0 db bf 00 80 c7 be 00 60 f2 be 00 e0 51 3f
       -1.7177734 -0.38964844 -0.47338867 0.8198242
000150 00 20 0a bf 00 c0 2a bf 00 40 49 40 00 60 2a be
       -0.5395508 -0.6669922 3.1445312 -0.16638184
000160 00 20 b1 bf 00 a0 8e be 00 a0 43 be 00 80 d1 be
       -1.3837891 -0.27856445 -0.19104004 -0.4091797
000170 00 20 0e bf 00 e0 22 bd 00 20 a6 bf 00 40 cd be
       -0.5551758 -0.039764404 -1.2978516 -0.4008789
000180 00 20 77 bf 00 c0 18 3e 00 a0 9b 3c 00 80 1c 3f
       -0.96533203 0.14916992 0.018997192 0.6113281
000190 00 a0 4b bd 00 00 e4 bd 00 80 97 bf 00 80 61 be
       -0.049713135 -0.111328125 -1.1835938 -0.22021484
0001a0 00 00 7f be 00 00 9c be 00 c0 7f bf 00 60 bc bf
       -0.24902344 -0.3046875 -0.99902344 -1.4716797
0001b0 00 e0 77 bf 00 a0 61 3e 00 20 9a 3e 00 e0 2a 3c
       -0.9682617 0.22033691 0.3010254 0.010429382
0001c0 00 40 0e 3c 00 e0 1b 3e 00 a0 93 bf 00 80 9c 3e
       0.008682251 0.15222168 -1.1533203 0.30566406
0001d0 00 80 21 bf 00 60 4c bb 00 20 84 bf 00 e0 56 be
       -0.6308594 -0.003118515 -1.0322266 -0.20983887
0001e0 00 60 8b bd 00 c0 2b 3f 00 40 33 3e 00 80 cf bf
       -0.0680542 0.67089844 0.17504883 -1.6210938
0001f0 00 e0 4b 3f 00 40 14 bf 00 e0 d7 3c 00 c0 99 be
       0.7963867 -0.57910156 0.026351929 -0.30029297
